…
      "execution_count": null,
      "id": "69267d10",
      "metadata": {
        "id": "69267d10",
        "outputId": "88f1c93a-3679-4595-abf6-d6714f81d896"
      },
      "outputs": [
        {
          "name": "stdout",
          "output_type": "stream",
          "text": [
            "Model: \"sequential\"\n",
            "_________________________________________________________________\n",
            " Layer (type)                Output Shape              Param #   \n",
            "=================================================================\n",
            " conv2d (Conv2D)             (None, 126, 126, 16)      448       \n",
            "                                                                 \n",
            " conv2d_1 (Conv2D)           (None, 126, 126, 16)      2320      \n",
            "                                                                 \n",
            " max_pooling2d (MaxPooling2D  (None, 63, 63, 16)       0         \n",
            " )                                                               \n",
            "                                                                 \n",
            " conv2d_2 (Conv2D)           (None, 61, 61, 32)        4640      \n",
            "                                                                 \n",
            " conv2d_3 (Conv2D)           (None, 61, 61, 32)        9248      \n",
            "                                                                 \n",
            " max_pooling2d_1 (MaxPooling  (None, 30, 30, 32)       0         \n",
            " 2D)                                                             \n",
            "                                                                 \n",
            " conv2d_4 (Conv2D)           (None, 28, 28, 64)        18496     \n",
            "                                                                 \n",
            " conv2d_5 (Conv2D)           (None, 28, 28, 64)        36928     \n",
            "                                                                 \n",
            " max_pooling2d_2 (MaxPooling  (None, 14, 14, 64)       0         \n",
            " 2D)                                                             \n",
            "                                                                 \n",
            " conv2d_6 (Conv2D)           (None, 12, 12, 128)       73856     \n",
            "                                                                 \n",
            " conv2d_7 (Conv2D)           (None, 12, 12, 128)       147584    \n",
            "                                                                 \n",
            " flatten (Flatten)           (None, 18432)             0         \n",
            "                                                                 \n",
            " dense (Dense)               (None, 128)               2359424   \n",
            "                                                                 \n",
            " dense_1 (Dense)             (None, 64)                8256      \n",
            "                                                                 \n",
            " dense_2 (Dense)             (None, 5)                 325       \n",
            "                                                                 \n",
            "=================================================================\n",
            "Total params: 2,661,525\n",
            "Trainable params: 2,661,525\n",
            "Non-trainable params: 0\n",
            "_________________________________________________________________\n"
          ]
        }
…
